Model: "model_5"
_________________________________________________________________
 Layer (type)                Output Shape              Param #   
=================================================================
 input_1 (InputLayer)        [(None, 256, 256, 3)]     0         
                                                                 
 model (Functional)          (None, 256, 256, 16)      2992      
|¯¯¯¯¯¯¯¯¯¯¯¯¯¯¯¯¯¯¯¯¯¯¯¯¯¯¯¯¯¯¯¯¯¯¯¯¯¯¯¯¯¯¯¯¯¯¯¯¯¯¯¯¯¯¯¯¯¯¯¯¯¯¯|
| input_2 (InputLayer)      [(None, 256, 256, 3)]     0         |
|                                                               |
| conv2d_1 (Conv2D)         (None, 256, 256, 16)      432       |
|                                                               |
| batch_normalization_1 (Batc  (None, 256, 256, 16)   64        |
| hNormalization)                                               |
|                                                               |
| activation (Activation)   (None, 256, 256, 16)      0         |
|                                                               |
| conv2d_2 (Conv2D)         (None, 256, 256, 16)      2304      |
|                                                               |
| conv2d (Conv2D)           (None, 256, 256, 16)      64        |
|                                                               |
| batch_normalization_2 (Batc  (None, 256, 256, 16)   64        |
| hNormalization)                                               |
|                                                               |
| batch_normalization (BatchN  (None, 256, 256, 16)   64        |
| ormalization)                                                 |
|                                                               |
| tf.__operators__.add (TFOpL  (None, 256, 256, 16)   0         |
| ambda)                                                        |
|                                                               |
| activation_1 (Activation)  (None, 256, 256, 16)     0         |
¯¯¯¯¯¯¯¯¯¯¯¯¯¯¯¯¯¯¯¯¯¯¯¯¯¯¯¯¯¯¯¯¯¯¯¯¯¯¯¯¯¯¯¯¯¯¯¯¯¯¯¯¯¯¯¯¯¯¯¯¯¯¯¯¯
 max_pooling2d (MaxPooling2D  (None, 128, 128, 16)     0         
 )                                                               
                                                                 
 model_1 (Functional)        (None, 128, 128, 32)      14752     
|¯¯¯¯¯¯¯¯¯¯¯¯¯¯¯¯¯¯¯¯¯¯¯¯¯¯¯¯¯¯¯¯¯¯¯¯¯¯¯¯¯¯¯¯¯¯¯¯¯¯¯¯¯¯¯¯¯¯¯¯¯¯¯|
| input_3 (InputLayer)      [(None, 128, 128, 16)]    0         |
|                                                               |
| conv2d_4 (Conv2D)         (None, 128, 128, 32)      4608      |
|                                                               |
| batch_normalization_4 (Batc  (None, 128, 128, 32)   128       |
| hNormalization)                                               |
|                                                               |
| activation_2 (Activation)  (None, 128, 128, 32)     0         |
|                                                               |
| conv2d_5 (Conv2D)         (None, 128, 128, 32)      9216      |
|                                                               |
| conv2d_3 (Conv2D)         (None, 128, 128, 32)      544       |
|                                                               |
| batch_normalization_5 (Batc  (None, 128, 128, 32)   128       |
| hNormalization)                                               |
|                                                               |
| batch_normalization_3 (Batc  (None, 128, 128, 32)   128       |
| hNormalization)                                               |
|                                                               |
| tf.__operators__.add_1 (TFO  (None, 128, 128, 32)   0         |
| pLambda)                                                      |
|                                                               |
| activation_3 (Activation)  (None, 128, 128, 32)     0         |
¯¯¯¯¯¯¯¯¯¯¯¯¯¯¯¯¯¯¯¯¯¯¯¯¯¯¯¯¯¯¯¯¯¯¯¯¯¯¯¯¯¯¯¯¯¯¯¯¯¯¯¯¯¯¯¯¯¯¯¯¯¯¯¯¯
 max_pooling2d_1 (MaxPooling  (None, 64, 64, 32)       0         
 2D)                                                             
                                                                 
 model_2 (Functional)        (None, 64, 64, 64)        58176     
|¯¯¯¯¯¯¯¯¯¯¯¯¯¯¯¯¯¯¯¯¯¯¯¯¯¯¯¯¯¯¯¯¯¯¯¯¯¯¯¯¯¯¯¯¯¯¯¯¯¯¯¯¯¯¯¯¯¯¯¯¯¯¯|
| input_4 (InputLayer)      [(None, 64, 64, 32)]      0         |
|                                                               |
| conv2d_7 (Conv2D)         (None, 64, 64, 64)        18432     |
|                                                               |
| batch_normalization_7 (Batc  (None, 64, 64, 64)     256       |
| hNormalization)                                               |
|                                                               |
| activation_4 (Activation)  (None, 64, 64, 64)       0         |
|                                                               |
| conv2d_8 (Conv2D)         (None, 64, 64, 64)        36864     |
|                                                               |
| conv2d_6 (Conv2D)         (None, 64, 64, 64)        2112      |
|                                                               |
| batch_normalization_8 (Batc  (None, 64, 64, 64)     256       |
| hNormalization)                                               |
|                                                               |
| batch_normalization_6 (Batc  (None, 64, 64, 64)     256       |
| hNormalization)                                               |
|                                                               |
| tf.__operators__.add_2 (TFO  (None, 64, 64, 64)     0         |
| pLambda)                                                      |
|                                                               |
| activation_5 (Activation)  (None, 64, 64, 64)       0         |
¯¯¯¯¯¯¯¯¯¯¯¯¯¯¯¯¯¯¯¯¯¯¯¯¯¯¯¯¯¯¯¯¯¯¯¯¯¯¯¯¯¯¯¯¯¯¯¯¯¯¯¯¯¯¯¯¯¯¯¯¯¯¯¯¯
 max_pooling2d_2 (MaxPooling  (None, 32, 32, 64)       0         
 2D)                                                             
                                                                 
 model_3 (Functional)        (None, 32, 32, 98)        150430    
|¯¯¯¯¯¯¯¯¯¯¯¯¯¯¯¯¯¯¯¯¯¯¯¯¯¯¯¯¯¯¯¯¯¯¯¯¯¯¯¯¯¯¯¯¯¯¯¯¯¯¯¯¯¯¯¯¯¯¯¯¯¯¯|
| input_5 (InputLayer)      [(None, 32, 32, 64)]      0         |
|                                                               |
| conv2d_10 (Conv2D)        (None, 32, 32, 98)        56448     |
|                                                               |
| batch_normalization_10 (Bat  (None, 32, 32, 98)     392       |
| chNormalization)                                              |
|                                                               |
| activation_6 (Activation)  (None, 32, 32, 98)       0         |
|                                                               |
| conv2d_11 (Conv2D)        (None, 32, 32, 98)        86436     |
|                                                               |
| conv2d_9 (Conv2D)         (None, 32, 32, 98)        6370      |
|                                                               |
| batch_normalization_11 (Bat  (None, 32, 32, 98)     392       |
| chNormalization)                                              |
|                                                               |
| batch_normalization_9 (Batc  (None, 32, 32, 98)     392       |
| hNormalization)                                               |
|                                                               |
| tf.__operators__.add_3 (TFO  (None, 32, 32, 98)     0         |
| pLambda)                                                      |
|                                                               |
| activation_7 (Activation)  (None, 32, 32, 98)       0         |
¯¯¯¯¯¯¯¯¯¯¯¯¯¯¯¯¯¯¯¯¯¯¯¯¯¯¯¯¯¯¯¯¯¯¯¯¯¯¯¯¯¯¯¯¯¯¯¯¯¯¯¯¯¯¯¯¯¯¯¯¯¯¯¯¯
 max_pooling2d_3 (MaxPooling  (None, 16, 16, 98)       0         
 2D)                                                             
                                                                 
 model_4 (Functional)        (None, 16, 16, 128)       274560    
|¯¯¯¯¯¯¯¯¯¯¯¯¯¯¯¯¯¯¯¯¯¯¯¯¯¯¯¯¯¯¯¯¯¯¯¯¯¯¯¯¯¯¯¯¯¯¯¯¯¯¯¯¯¯¯¯¯¯¯¯¯¯¯|
| input_6 (InputLayer)      [(None, 16, 16, 98)]      0         |
|                                                               |
| conv2d_13 (Conv2D)        (None, 16, 16, 128)       112896    |
|                                                               |
| batch_normalization_13 (Bat  (None, 16, 16, 128)    512       |
| chNormalization)                                              |
|                                                               |
| activation_8 (Activation)  (None, 16, 16, 128)      0         |
|                                                               |
| conv2d_14 (Conv2D)        (None, 16, 16, 128)       147456    |
|                                                               |
| conv2d_12 (Conv2D)        (None, 16, 16, 128)       12672     |
|                                                               |
| batch_normalization_14 (Bat  (None, 16, 16, 128)    512       |
| chNormalization)                                              |
|                                                               |
| batch_normalization_12 (Bat  (None, 16, 16, 128)    512       |
| chNormalization)                                              |
|                                                               |
| tf.__operators__.add_4 (TFO  (None, 16, 16, 128)    0         |
| pLambda)                                                      |
|                                                               |
| activation_9 (Activation)  (None, 16, 16, 128)      0         |
¯¯¯¯¯¯¯¯¯¯¯¯¯¯¯¯¯¯¯¯¯¯¯¯¯¯¯¯¯¯¯¯¯¯¯¯¯¯¯¯¯¯¯¯¯¯¯¯¯¯¯¯¯¯¯¯¯¯¯¯¯¯¯¯¯
 max_pooling2d_4 (MaxPooling  (None, 8, 8, 128)        0         
 2D)                                                             
                                                                 
 flatten (Flatten)           (None, 8192)              0         
                                                                 
 sequential (Sequential)     (None, 128)               1049088   
|¯¯¯¯¯¯¯¯¯¯¯¯¯¯¯¯¯¯¯¯¯¯¯¯¯¯¯¯¯¯¯¯¯¯¯¯¯¯¯¯¯¯¯¯¯¯¯¯¯¯¯¯¯¯¯¯¯¯¯¯¯¯¯|
| dense (Dense)             (None, 128)               1048576   |
|                                                               |
| batch_normalization_15 (Bat  (None, 128)            512       |
| chNormalization)                                              |
|                                                               |
| activation_10 (Activation)  (None, 128)             0         |
¯¯¯¯¯¯¯¯¯¯¯¯¯¯¯¯¯¯¯¯¯¯¯¯¯¯¯¯¯¯¯¯¯¯¯¯¯¯¯¯¯¯¯¯¯¯¯¯¯¯¯¯¯¯¯¯¯¯¯¯¯¯¯¯¯
 dense_1 (Dense)             (None, 29)                3741      
                                                                 
=================================================================
Total params: 1,553,739
Trainable params: 1,551,455
Non-trainable params: 2,284
_________________________________________________________________
